Interpolated model:
Architecture:



Initial Loss (model.evaluate output):19.77763557434082

Model: "sequential_1"
_________________________________________________________________
 Layer (type)                Output Shape              Param #   
=================================================================
 conv2d_9 (Conv2D)           (None, 72, 45, 128)       354944    
                                                                 
 conv2d_10 (Conv2D)          (None, 72, 45, 128)       147584    
                                                                 
 conv2d_11 (Conv2D)          (None, 72, 45, 128)       147584    
                                                                 
 batch_normalization (BatchN  (None, 72, 45, 128)      512       
 ormalization)                                                   
                                                                 
 max_pooling2d_3 (MaxPooling  (None, 36, 22, 128)      0         
 2D)                                                             
                                                                 
 conv2d_12 (Conv2D)          (None, 36, 22, 256)       295168    
                                                                 
 conv2d_13 (Conv2D)          (None, 36, 22, 256)       590080    
                                                                 
 conv2d_14 (Conv2D)          (None, 36, 22, 256)       590080    
                                                                 
 batch_normalization_1 (Batc  (None, 36, 22, 256)      1024      
 hNormalization)                                                 
                                                                 
 max_pooling2d_4 (MaxPooling  (None, 18, 11, 256)      0         
 2D)                                                             
                                                                 
 conv2d_15 (Conv2D)          (None, 18, 11, 512)       1180160   
                                                                 
 conv2d_16 (Conv2D)          (None, 18, 11, 512)       2359808   
                                                                 
 conv2d_17 (Conv2D)          (None, 18, 11, 512)       2359808   
                                                                 
 batch_normalization_2 (Batc  (None, 18, 11, 512)      2048      
 hNormalization)                                                 
                                                                 
 max_pooling2d_5 (MaxPooling  (None, 9, 5, 512)        0         
 2D)                                                             
                                                                 
 flatten_1 (Flatten)         (None, 23040)             0         
                                                                 
 dense_3 (Dense)             (None, 1024)              23593984  
                                                                 
 dense_4 (Dense)             (None, 1024)              1049600   
                                                                 
 dropout_1 (Dropout)         (None, 1024)              0         
                                                                 
 dense_5 (Dense)             (None, 113400)            116235000 
                                                                 
 reshape_1 (Reshape)         (None, 72, 45, 35)        0         
                                                                 
=================================================================
Total params: 148,907,384
Trainable params: 148,905,592
Non-trainable params: 1,792

Epoch 1/50
33/33 - 31s - loss: 88839.9531 - val_loss: 88868.0078 - 31s/epoch - 946ms/step
Epoch 2/50
33/33 - 31s - loss: 88401.8672 - val_loss: 88775.9922 - 31s/epoch - 931ms/step
…
33/33 - 33s - loss: 1189.6605 - val_loss: 481.5862 - 33s/epoch - 999ms/step
Epoch 49/50
33/33 - 33s - loss: 1107.8944 - val_loss: 255.4049 - 33s/epoch - 996ms/step
Epoch 50/50
33/33 - 33s - loss: 1096.2269 - val_loss: 268.6569 - 33s/epoch - 992ms/step

model.evaluate:
11/11 [==============================] - 9s 800ms/step - loss: 285.8797
285.87969970703125




Now reduced the no. neurons and changed learning rate to 1e-4:
Model: "sequential"
_________________________________________________________________
 Layer (type)                Output Shape              Param #   
=================================================================
 conv2d (Conv2D)             (None, 72, 45, 64)        177472    
                                                                 
 conv2d_1 (Conv2D)           (None, 72, 45, 64)        36928     
                                                                 
 conv2d_2 (Conv2D)           (None, 72, 45, 64)        36928     
                                                                 
 batch_normalization (BatchN  (None, 72, 45, 64)       256       
 ormalization)                                                   
                                                                 
 max_pooling2d (MaxPooling2D  (None, 36, 22, 64)       0         
 )                                                               
                                                                 
 conv2d_3 (Conv2D)           (None, 36, 22, 128)       73856     
                                                                 
 conv2d_4 (Conv2D)           (None, 36, 22, 128)       147584    
                                                                 
 conv2d_5 (Conv2D)           (None, 36, 22, 128)       147584    
                                                                 
 batch_normalization_1 (Batc  (None, 36, 22, 128)      512       
 hNormalization)                                                 
                                                                 
 max_pooling2d_1 (MaxPooling  (None, 18, 11, 128)      0         
 2D)                                                             
                                                                 
 conv2d_6 (Conv2D)           (None, 18, 11, 256)       295168    
                                                                 
 conv2d_7 (Conv2D)           (None, 18, 11, 256)       590080    
                                                                 
 conv2d_8 (Conv2D)           (None, 18, 11, 256)       590080    
                                                                 
 batch_normalization_2 (Batc  (None, 18, 11, 256)      1024      
 hNormalization)                                                 
                                                                 
 max_pooling2d_2 (MaxPooling  (None, 9, 5, 256)        0         
 2D)                                                             
                                                                 
 flatten (Flatten)           (None, 11520)             0         
                                                                 
 dense (Dense)               (None, 512)               5898752   
                                                                 
 dense_1 (Dense)             (None, 512)               262656    
                                                                 
 dropout (Dropout)           (None, 512)               0         
                                                                 
 dense_2 (Dense)             (None, 113400)            58174200  
                                                                 
 reshape (Reshape)           (None, 72, 45, 35)        0         
                                                                 
=================================================================
Total params: 66,433,080
Trainable params: 66,432,184
Non-trainable params: 896

Epoch 1/50
33/33 - 29s - loss: 87534.7031 - val_loss: 87892.4844 - 29s/epoch - 887ms/step
Epoch 2/50
33/33 - 31s - loss: 65340.5977 - val_loss: 74337.0391 - 31s/epoch - 933ms/step
…
33/33 - 30s - loss: 292.2489 - val_loss: 61.0933 - 30s/epoch - 908ms/step
Epoch 49/50
33/33 - 30s - loss: 344.8558 - val_loss: 92.5522 - 30s/epoch - 919ms/step
Epoch 50/50
33/33 - 30s - loss: 339.2319 - val_loss: 34.9251 - 30s/epoch - 906ms/step

Starting to look a lot cleaner
11/11 [==============================] - 8s 725ms/step - loss: 37.7769
37.77694320678711



Model: "sequential"
_________________________________________________________________
 Layer (type)                Output Shape              Param #   
=================================================================
 conv2d (Conv2D)             (None, 36, 23, 32)        88736     
                                                                 
 conv2d_1 (Conv2D)           (None, 36, 23, 32)        9248      
                                                                 
 conv2d_2 (Conv2D)           (None, 36, 23, 32)        9248      
                                                                 
 max_pooling2d (MaxPooling2D  (None, 18, 11, 32)       0         
 )                                                               
                                                                 
 conv2d_3 (Conv2D)           (None, 18, 11, 64)        18496     
                                                                 
 conv2d_4 (Conv2D)           (None, 18, 11, 64)        36928     
                                                                 
 conv2d_5 (Conv2D)           (None, 18, 11, 64)        36928     
                                                                 
 max_pooling2d_1 (MaxPooling  (None, 9, 5, 64)         0         
 2D)                                                             
                                                                 
 conv2d_6 (Conv2D)           (None, 9, 5, 128)         73856     
                                                                 
 conv2d_7 (Conv2D)           (None, 9, 5, 128)         147584    
                                                                 
 conv2d_8 (Conv2D)           (None, 9, 5, 128)         147584    
                                                                 
 max_pooling2d_2 (MaxPooling  (None, 4, 2, 128)        0         
 2D)                                                             
                                                                 
 flatten (Flatten)           (None, 1024)              0         
                                                                 
 dense (Dense)               (None, 512)               524800    
                                                                 
 dense_1 (Dense)             (None, 512)               262656    
                                                                 
 dense_2 (Dense)             (None, 28980)             14866740  
                                                                 
 reshape (Reshape)           (None, 36, 23, 35)        0 

Epoch 1/20
133/133 [==============================] - 9676s 73s/step - loss: 39601.7539 - du: 22548.9141 - val_loss: 17.8849 - val_du: 662.7124
Epoch 2/20
133/133 [==============================] - 8333s 63s/step - loss: 653.5396 - du: 1845.9167 - val_loss: 20.3183 - val_du: 738.6533
Epoch 3/20
133/133 [==============================] - 8532s 64s/step - loss: 670.6445 - du: 1971.8120 - val_loss: 103.1505 - val_du: 1842.4819
…
133/133 [==============================] - 8567s 65s/step - loss: 830.8809 - du: 2474.9763 - val_loss: 13.8968 - val_du: 439.5668
Epoch 20/20
133/133 [==============================] - 8493s 64s/step - loss: 671.2294 - du: 1621.7657 - val_loss: 12.9046 - val_du: 480.9213

learning_rate 1e-3
time = [20021010, 2023010]
lon = [2.5, 177.5]
lat = [0.0, 88]
lev = [0, 152]
w batch_size 32 

time = [2018010, 2023010]
lon = [2.5, 177.5]
lat = [4, 88]

For masked model:
Model: "sequential"
_________________________________________________________________
 Layer (type)                Output Shape              Param #   
=================================================================
 conv2d (Conv2D)             (None, 72, 45, 32)        258080    
                                                                 
 conv2d_1 (Conv2D)           (None, 72, 45, 32)        9248      
                                                                 
 conv2d_2 (Conv2D)           (None, 72, 45, 32)        9248      
                                                                 
 max_pooling2d (MaxPooling2D  (None, 36, 22, 32)       0         
 )                                                               
                                                                 
 conv2d_3 (Conv2D)           (None, 36, 22, 64)        18496     
                                                                 
 conv2d_4 (Conv2D)           (None, 36, 22, 64)        36928     
                                                                 
 conv2d_5 (Conv2D)           (None, 36, 22, 64)        36928     
                                                                 
 max_pooling2d_1 (MaxPooling  (None, 18, 11, 64)       0         
 2D)                                                             
                                                                 
 conv2d_6 (Conv2D)           (None, 18, 11, 128)       73856     
                                                                 
 conv2d_7 (Conv2D)           (None, 18, 11, 128)       147584    
                                                                 
 conv2d_8 (Conv2D)           (None, 18, 11, 128)       147584    
                                                                 
 max_pooling2d_2 (MaxPooling  (None, 9, 5, 128)        0         
 2D)                                                             
                                                                 
 flatten (Flatten)           (None, 5760)              0         
                                                                 
 dense (Dense)               (None, 512)               2949632   
                                                                 
 dense_1 (Dense)             (None, 512)               262656    
                                                                 
 dense_2 (Dense)             (None, 136080)            69809040  
                                                                 
 reshape (Reshape)           (None, 72, 45, 42)        0         
                                                                 
=================================================================
Total params: 73,759,280
Trainable params: 73,759,280
Non-trainable params: 0


Epoch 1/50
17/17 [==============================] - 1731s 103s/step - loss: 12977355.0000 - du: 0.0147 - val_loss: 991796.0625 - val_du: 0.0086
Epoch 2/50
17/17 [==============================] - 1677s 101s/step - loss: 826800.6250 - du: 0.0077 - val_loss: 155139.7031 - val_du: 0.0034
…
17/17 [==============================] - 1708s 102s/step - loss: 5722.5337 - du: 6.5328e-04 - val_loss: 5728.3452 - val_du: 6.5326e-04
Epoch 41/50
17/17 [==============================] - 1704s 102s/step - loss: 5712.1909 - du: 6.5274e-04 - val_loss: 5728.1084 - val_du: 6.5376e-04
Epoch 42/50
17/17 [==============================] - ETA: 0s - loss: 5710.7852 - du: 6.5259e-04  


Anoter run, learning rate 1e-4
time = [2018010, 2023010]
lon = [2.5, 177.5]
lat = [4, 88]

Model: "sequential"
_________________________________________________________________
 Layer (type)                Output Shape              Param #   
=================================================================
 conv2d (Conv2D)             (None, 36, 22, 32)        258080    
                                                                 
 conv2d_1 (Conv2D)           (None, 36, 22, 32)        9248      
                                                                 
 conv2d_2 (Conv2D)           (None, 36, 22, 32)        9248      
                                                                 
 max_pooling2d (MaxPooling2D  (None, 18, 11, 32)       0         
 )                                                               
                                                                 
 conv2d_3 (Conv2D)           (None, 18, 11, 64)        18496     
                                                                 
 conv2d_4 (Conv2D)           (None, 18, 11, 64)        36928     
                                                                 
 conv2d_5 (Conv2D)           (None, 18, 11, 64)        36928     
                                                                 
 max_pooling2d_1 (MaxPooling  (None, 9, 5, 64)         0         
 2D)                                                             
                                                                 
 conv2d_6 (Conv2D)           (None, 9, 5, 128)         73856     
                                                                 
 conv2d_7 (Conv2D)           (None, 9, 5, 128)         147584    
                                                                 
 conv2d_8 (Conv2D)           (None, 9, 5, 128)         147584    
                                                                 
 max_pooling2d_2 (MaxPooling  (None, 4, 2, 128)        0         
 2D)                                                             
                                                                 
 flatten (Flatten)           (None, 1024)              0         
                                                                 
 dense (Dense)               (None, 512)               524800    
                                                                 
 dense_1 (Dense)             (None, 512)               262656    
                                                                 
 dense_2 (Dense)             (None, 33264)             17064432  
                                                                 
 reshape (Reshape)           (None, 36, 22, 42)        0         
                                                                 
=================================================================
Total params: 18,589,840
Trainable params: 18,589,840
Non-trainable params: 0

Epoch 1/50
17/17 [==============================] - 1682s 100s/step - loss: 990460.0000 - du: 189356.4219 - val_loss: 986947.3125 - val_du: 189021.7969
Epoch 2/50
17/17 [==============================] - 1624s 97s/step - loss: 978068.5000 - du: 188152.3750 - val_loss: 960175.9375 - val_du: 186441.6875
…
 72/262 [=======>......................] - ETA: 1:05:25 - loss: 6953.7490 - du: 15371.1768

 gonna run a quick test so stopping now.




Masked model final ish run
time_step = 1 day
learning_rate = 0.001


measurements = ['SO2', 'CO', 'H2O', 'HCl', 'HNO3', 'N2O', 'Temperature']
time = [2004248, 2024010]
lon = [2.5, 177.5]
lat = [0, 88]
batch_size = 16
norm_sample = 500
60:20:20 train:validation:test split 

Model: "sequential"
_________________________________________________________________
 Layer (type)                Output Shape              Param #   
=================================================================
 conv2d (Conv2D)             (None, 36, 23, 32)        258080    
                                                                 
 conv2d_1 (Conv2D)           (None, 36, 23, 32)        9248      
                                                                 
 conv2d_2 (Conv2D)           (None, 36, 23, 32)        9248      
                                                                 
 batch_normalization (BatchN  (None, 36, 23, 32)       128       
 ormalization)                                                   
                                                                 
 max_pooling2d (MaxPooling2D  (None, 18, 11, 32)       0         
 )                                                               
                                                                 
 conv2d_3 (Conv2D)           (None, 18, 11, 64)        18496     
                                                                 
 conv2d_4 (Conv2D)           (None, 18, 11, 64)        36928     
                                                                 
 conv2d_5 (Conv2D)           (None, 18, 11, 64)        36928     
                                                                 
 batch_normalization_1 (Batc  (None, 18, 11, 64)       256       
 hNormalization)                                                 
                                                                 
 max_pooling2d_1 (MaxPooling  (None, 9, 5, 64)         0         
 2D)                                                             
                                                                 
 conv2d_6 (Conv2D)           (None, 9, 5, 128)         73856     
                                                                 
 conv2d_7 (Conv2D)           (None, 9, 5, 128)         147584    
                                                                 
 conv2d_8 (Conv2D)           (None, 9, 5, 128)         147584    
                                                                 
 batch_normalization_2 (Batc  (None, 9, 5, 128)        512       
 hNormalization)                                                 
                                                                 
 max_pooling2d_2 (MaxPooling  (None, 4, 2, 128)        0         
 2D)                                                             
                                                                 
 flatten (Flatten)           (None, 1024)              0         
                                                                 
 dense (Dense)               (None, 512)               524800    
                                                                 
 dense_1 (Dense)             (None, 512)               262656    
                                                                 
 dropout (Dropout)           (None, 512)               0         
                                                                 
 dense_2 (Dense)             (None, 34776)             17840088  
                                                                 
 reshape (Reshape)           (None, 36, 23, 42)        0         
                                                                 
=================================================================
Total params: 19,366,392
Trainable params: 19,365,944
Non-trainable params: 448
_________________________________________________________________


 Epoch 1/25
262/262 [==============================] - 7210s 28s/step - loss: 1.5234e-04 - ppmv: 1.4951e-08 - val_loss: 8.3165e-08 - val_ppmv: 1.7667e-09
…
